{"format": "layers-model", "generatedBy": "keras v2.9.0", "convertedBy": "TensorFlow.js Converter v3.19.0", "modelTopology": {"keras_version": "2.9.0", "backend": "tensorflow", "model_config": {"class_name": "Sequential", "config": {"name": "sequential_41", "layers": [{"class_name": "InputLayer", "config": {"batch_input_shape": [null, 268, 182, 3], "dtype": "float32", "sparse": false, "ragged": false, "name": "input_29"}}, {"class_name": "Conv2D", "config": {"name": "conv2d_69", "trainable": true, "batch_input_shape": [null, 268, 182, 3], "dtype": "float32", "filters": 3, "kernel_size": [3, 3], "strides": [1, 1], "padding": "same", "data_format": "channels_last", "dilation_rate": [1, 1], "groups": 1, "activation": "linear", "use_bias": true, "kernel_initializer": {"class_name": "GlorotUniform", "config": {"seed": null}}, "bias_initializer": {"class_name": "Zeros", "config": {}}, "kernel_regularizer": null, "bias_regularizer": null, "activity_regularizer": null, "kernel_constraint": null, "bias_constraint": null}}, {"class_name": "Flatten", "config": {"name": "flatten_35", "trainable": true, "dtype": "float32", "data_format": "channels_last"}}, {"class_name": "Dense", "config": {"name": "dense_45", "trainable": true, "dtype": "float32", "units": 28, "activation": "sigmoid", "use_bias": true, "kernel_initializer": {"class_name": "GlorotUniform", "config": {"seed": null}}, "bias_initializer": {"class_name": "Zeros", "config": {}}, "kernel_regularizer": null, "bias_regularizer": null, "activity_regularizer": null, "kernel_constraint": null, "bias_constraint": null}}]}}, "training_config": {"loss": {"class_name": "BinaryCrossentropy", "config": {"reduction": "auto", "name": "binary_crossentropy", "from_logits": false, "label_smoothing": 0.0, "axis": -1}}, "metrics": [[{"class_name": "MeanMetricWrapper", "config": {"name": "accuracy", "dtype": "float32", "fn": "categorical_accuracy"}}, {"class_name": "Addons>F1Score", "config": {"name": "f1_score", "dtype": "float32", "num_classes": 28, "average": "macro", "threshold": null}}]], "weighted_metrics": null, "loss_weights": null, "optimizer_config": {"class_name": "Adam", "config": {"name": "Adam", "learning_rate": 0.0010000000474974513, "decay": 0.0, "beta_1": 0.8999999761581421, "beta_2": 0.9990000128746033, "epsilon": 1e-07, "amsgrad": false}}}}, "weightsManifest": [{"paths": ["group1-shard1of4.bin", "group1-shard2of4.bin", "group1-shard3of4.bin", "group1-shard4of4.bin"], "weights": [{"name": "conv2d_69/kernel", "shape": [3, 3, 3, 3], "dtype": "float32"}, {"name": "conv2d_69/bias", "shape": [3], "dtype": "float32"}, {"name": "dense_45/kernel", "shape": [146328, 28], "dtype": "float32"}, {"name": "dense_45/bias", "shape": [28], "dtype": "float32"}]}]}